saved_models/user_BERT_model/ctfidf.safetensors (safetensors, 290100 bytes, 4 tensors)

data f8 [21683]
0.0007917720183559263 0.0010943067764331359 0.0022042423501129334 0.00021520525546840167 0.00046725527230411586 0.0005706610942619768 0.0037563903005055823 0.002639206319857098
0.0012857514680078383 0.0012739390486814165 0.0007917720183559263 0.0014120819628221167 0.001165362036475681 0.00581859801404021 0.0011124073295991222 0.0004272912797647542
0.0006559778191218456 0.0007917720183559263 0.0007682899000606183 0.0019679334573655368 0.0014884937378389165 0.0003110082632444603 0.0014896227516232902 0.002510590577357512
0.000560840545683945 0.0005930588768670964 0.002507090322489232 0.001099688138516165 0.0007060409814110583 0.0010133188383434444 0.005656927810231057 0.002455661250118164
0.0007917720183559263 0.001757720759837949 0.0018369454843197581 0.0004715583396140321 0.0038847295811657665 0.00020122772873699423 0.0038579644517822962 0.0015112643522873642
0.0013515315338675016 0.0009822645000472658 0.004525109853591416 0.0007599876215893105 0.00430713811675876 0.0033320944725467854 0.004267688056104925 0.0034692508877534186
0.0007917720183559263 0.0014961601067133283 0.00027165250974359195 0.0005081523243903992 0.00036300352517129483 0.0011007557114369503 0.002969626706044228 0.0007917720183559263
0.00628955691482576 0.0005210094796452191 0.004683890324942336 0.0005517557281522851 0.001490679626601748 0.005276236970532574 0.00035065949127486505 0.0016552671844568554
0.0023634430067078073 0.0031244150193643523 0.0007917720183559263 0.0004910965142994021 0.0011124073295991222 0.000560840545683945 0.001779176630601289 0.0005144089822952484
0.0011413221885239536 0.0011413221885239536 0.0014120819628221167 0.0019438323825016913 0.0031581662730472853 0.0032706860743781456 0.0006559778191218456 0.0014287168330041325
0.0007917720183559263 0.0014475983404906348 0.0015064367882788115 0.003813379216675812 0.0007917720183559263 0.0014120819628221167 0.0008122410705425034 0.0006060181906411664
0.004988108369068143 0.0014120819628221167 0.0007917720183559263 0.0009351000666958302 0.0011035114563045702 0.0015924238108517706 0.0007919897286663449 0.00027165250974359195
0.0013119556382436913 0.0016961969728074748 0.0007972192938891156 0.00039588600917796316 0.0008031097451813655 0.0023722355074683858 0.0007917720183559263 0.0016552671844568554
0.001291238224469529 0.0011124073295991222 0.0007917720183559263 0.0008895883153006445 0.0008672311021231955 0.0005813455658932748 0.0007917720183559263 0.0022104863428444336
0.0011545667896017255 0.0009090272859617496 0.0006907769821388855 0.0009178109166480674 0.0015922970681474652 0.0013119556382436913 0.0008049109149479769 0.001682521637051835
0.0019232574236359632 0.0016552671844568554 0.0007917720183559263 0.0005433050194871839 0.0007917720183559263 0.0011124073295991222 0.0005517557281522851 0.0006883581874860505
0.0014896227516232902 0.001214895239063557 0.0019679334573655368 0.002057635929180994 0.0005813455658932748 0.0003562094687231825 0.0030510107857618218 0.00035302049070552917
0.0007060409814110583 0.0011124073295991222 0.0033493860623350674 0.0034239665655718603 0.002844764940460402 0.0007917720183559263 0.0005433050194871839 0.0004437946320581626
0.006542353708429981 0.000561060040017498 0.0031360062092767684 0.006527597676388008 0.0007917720183559263 0.0007917720183559263 0.0004859580956254228 0.0007919897286663449
0.0014480422538852092 0.00037080244319970745 0.0016171443405740883 0.0014533639147331868 0.00039588600917796316 0.0008065811118823651 0.0014120819628221167 0.0009808954406239079
0.002572702581078595 0.004466601615074092 0.0007917720183559263 0.0006559778191218456 0.001517654428715592 0.0020487629364789946 0.0018651916481227694 0.0030853833758015445
0.0011835430299298236 0.004760200250785415 0.002060815025846406 0.004606962042445093 0.0015441757829745505 0.002765811750436431 0.002249833825695215 0.001370081951947663
0.006129829705911414 0.0056839469504487245 0.00039588600917796316 0.001752274485854793 0.0004762389443347109 0.0005706610942619768 0.0005517557281522851 0.0007416048863994149
0.0005699907161919828 0.00043880364388802133 0.0011124073295991222 0.0007917720183559263 0.0006060181906411664 0.0012410352440439107 0.001861552866065866 0.0014120819628221167
0.0008049109149479769 0.0003212507730988653 0.0013738766838976041 0.0011861177537341929 0.002981359253203496 0.0010044118627645423 0.0007917720183559263 0.001779176630601289
0.002965294384335482 0.00043880364388802133 0.0030886093235145263 0.001953357225027847 0.001485865968355603 0.0008485070160225383 0.0003929329432534946 0.001165362036475681
0.0007397143937061398 0.0007917720183559263 0.0003279889095609228 0.0006559778191218456 0.0006205176220219553 0.00043880364388802133 0.0014120819628221167 0.0003498083053014957
0.001227830625059082 0.0007917720183559263 0.0004437946320581626 0.0009554542865110623 0.0012304656717858076 0.0006824130292060565 0.0011861177537341929 0.0012120363812823328
0.0010163046487807984 0.0013915828346313013 0.000339239394561495 0.0007917720183559263 0.0008311802102817 0.0004589054583240337 0.0015432269468857451 0.00043880364388802133
0.0011124073295991222 0.00043880364388802133 0.0011399814323839656 0.0025642289170351353 0.0007917720183559263 0.0019679334573655368 0.0007917720183559263 0.00041284067641780104
0.0011124073295991222 0.0007917720183559263 0.0007008829084561737 0.0041468065099317586 0.003637711638302568 0.0009554542865110623 0.0007060409814110583 0.0012304656717858076
0.0011124073295991222 0.0011035114563045702 0.0016552671844568554 0.0014701312187037168 0.0012410352440439107 0.0003030090953205832 0.0005022059313822711 0.0024820405516885243
00000000: 1571 5d76 ddf1 493f 1eb5 42f4 daed 513f
00000010: bf55 cc99 a10e 623f 51f5 7d11 1735 2c3f
00000020: 74bb 091d 3e9f 3e3f a088 545e 0db3 423f
00000030: 2cde bbaf b8c5 6e3f 920c 991a d19e 653f
00000040: ad4c 6020 d510 553f 6899 46a3 49df 543f
00000050: 1571 5d76 ddf1 493f 22b9 5f76 b322 573f
00000060: 661e 6bf5 e117 533f 33aa dc02 3ed5 773f
00000070: 43eb 6d46 c639 523f 5a73 8c12 c200 3c3f
00000080: a303 d8a3 bd7e 453f 1571 5d76 ddf1 493f
00000090: 214c 4fff e12c 493f ba02 e23a 0e1f 603f
000000a0: a50a 28fb 3163 583f 588e c551 da61 343f
000000b0: 0d35 1a40 ee67 583f 5776 8c0d 1791 643f
000000c0: d863 a7e6 ab60 423f 5d1b 893d f06e 433f
000000d0: 5dc5 2ede bf89 643f 9f74 ce25 6d04 523f
000000e0: 22b9 5f76 b322 473f 29cc 59d1 2a9a 503f
000000f0: 626a 0dff b72b 773f a948 4c18 e51d 643f
00000100: 1571 5d76 ddf1 493f 4ace 744b 6acc 5c3f
00000110: 8369 e631 b518 5e3f 4793 94a5 6fe7 3e3f
00000120: 943a 2850 ded2 6f3f 3b91 2707 1560 2a3f
00000130: bdfe c8e4 bc9a 6f3f c0ee febd b3c2 583f
00000140: 9fc4 32ef bb24 563f 88a0 d679 ea17 503f
00000150: dccc 4fed eb88 723f 779e 73fd 3ce7 483f
00000160: 0304 9d95 5ca4 713f fc39 2d99 e84b 6b3f
00000170: a887 16ca fe7a 713f 1e3a 58e3 8b6b 6c3f
00000180: 1571 5d76 ddf1 493f fd22 96ae 5983 583f
00000190: 0378 2da5 92cd 313f 6da0 acce b0a6 403f
000001a0: eb79 d944 30ca 373f 9435 0472 e708 523f
000001b0: 8464 ae32 c253 683f 1571 5d76 ddf1 493f
000001c0: d28e 1614 14c3 793f a395 8656 8b12 413f
000001d0: 9306 383c 6a2f 733f 58d1 6567 7614 423f
000001e0: b131 af0f 5d6c 583f ef08 c013 899c 753f
000001f0: 8ff6 0b0c 17fb 363f 04ba 189b b11e 5b3f
00000200: 5fc1 6ecd 7f5c 633f 2840 798a 5f98 693f
00000210: 1571 5d76 ddf1 493f e58d eabb 9d17 403f
00000220: 43eb 6d46 c639 523f d863 a7e6 ab60 423f
00000230: 0aa9 4d5c 6826 5d3f 56a7 bbe0 2cdb 403f
00000240: a088 545e 0db3 523f a088 545e 0db3 523f
00000250: 22b9 5f76 b322 573f 4885 c020 06d9 5f3f
00000260: a54b 759b 27df 693f 93ae 3237 20cb 6a3f
00000270: a303 d8a3 bd7e 453f 77fd ab04 7968 573f
00000280: 1571 5d76 ddf1 493f 16ff ede1 aab7 573f
00000290: a636 4e2f 74ae 583f 2957 bb60 3c3d 6f3f
000002a0: 1571 5d76 ddf1 493f 22b9 5f76 b322 573f
000002b0: d931 cf6a 929d 4a3f 657a a027 a6db 433f
000002c0: f15a 0625 696e 743f 22b9 5f76 b322 573f
000002d0: 1571 5d76 ddf1 493f bcab 3b1a 30a4 4e3f
000002e0: 58d1 6567 7614 523f c23f 180c 1c17 5a3f
000002f0: 17b8 dffd b0f3 493f 0378 2da5 92cd 313f
00000300: a303 d8a3 bd7e 553f d46a a6a1 5dca 5b3f
00000310: ba5c c265 8f1f 4a3f 1571 5d76 ddf1 393f
00000320: 4b83 9a0b f950 4a3f 5d1b 893d f06e 633f
00000330: 1571 5d76 ddf1 493f 04ba 189b b11e 5b3f
00000340: 0c1e 827c d827 553f 43eb 6d46 c639 523f
00000350: 1571 5d76 ddf1 493f 0aa9 4d5c 6826 4d3f
00000360: 0671 609c dc6a 4c3f 8a53 ba18 ae0c 433f
00000370: 1571 5d76 ddf1 493f 86eb 9fd1 b91b 623f
00000380: b982 8da6 9aea 523f 97b7 703b 79c9 4d3f
00000390: 67e6 0746 a8a2 463f 7a26 7aef 2713 4e3f
000003a0: 3b50 53f5 9316 5a3f a303 d8a3 bd7e 553f
000003b0: 3b91 2707 1560 4a3f c415 fbd9 0191 5b3f
000003c0: dba1 1fef b982 5f3f 04ba 189b b11e 5b3f
000003d0: 1571 5d76 ddf1 493f 0378 2da5 92cd 413f
000003e0: 1571 5d76 ddf1 493f 43eb 6d46 c639 523f
000003f0: 58d1 6567 7614 423f db9c 9bf3 5d8e 463f
00000400: 0d35 1a40 ee67 583f 4d53 78d4 a3e7 533f
00000410: ba02 e23a 0e1f 603f 56a7 bbe0 2cdb 603f
00000420: 8a53 ba18 ae0c 433f 13f9 c804 3458 373f
00000430: 9c48 6df1 6efe 683f 22b9 5f76 b322 373f
00000440: 22b9 5f76 b322 473f 43eb 6d46 c639 523f
00000450: 4958 2ef3 2b70 6b3f efcc 7e0d 940c 6c3f
00000460: 3c6c 4a8c e74d 673f 1571 5d76 ddf1 493f
00000470: 0378 2da5 92cd 413f aee2 4a6e a315 3d3f
00000480: 3f13 77b3 27cc 7a3f 3d9a f042 8362 423f
00000490: d514 7c83 aeb0 693f 8c1d aaa8 aebc 7a3f
000004a0: 1571 5d76 ddf1 493f 1571 5d76 ddf1 493f
000004b0: 4885 c020 06d9 3f3f 17b8 dffd b0f3 493f
000004c0: a518 ea87 87b9 573f 5ae4 e75d 084d 383f
000004d0: 1537 9083 cb7e 5a3f 6ce8 e89e d9cf 573f
000004e0: 1571 5d76 ddf1 393f 002c a1bf 176e 4a3f
000004f0: 22b9 5f76 b322 573f 004d a675 2c12 503f
00000500: 5991 562e 5913 653f 23ac c63d 924b 723f
00000510: 1571 5d76 ddf1 493f a303 d8a3 bd7e 453f
00000520: e462 d408 81dd 583f 91e2 e639 91c8 603f
00000530: 1011 4948 2e8f 5e3f ebe5 3a96 8446 693f
00000540: 9b63 d8a6 2364 533f 237e 6486 6e7f 733f
00000550: c9a2 73a4 d7e1 603f bd41 e6f4 bfde 723f
00000560: eb7a 2d1f be4c 593f e604 7be0 53a8 663f
00000570: 044d 7d56 3e6e 623f 260a 4b4b 8a72 563f
00000580: 3efb dea1 971b 793f 8be2 3ae4 0c48 773f
00000590: 1571 5d76 ddf1 393f e529 1067 92b5 5c3f
000005a0: f551 e5b0 f635 3f3f a088 545e 0db3 423f
000005b0: 58d1 6567 7614 423f 5ae4 e75d 084d 483f
000005c0: d9b6 16be 6dad 423f 8aee c34c e7c1 3c3f
000005d0: 43eb 6d46 c639 523f 1571 5d76 ddf1 493f
000005e0: 657a a027 a6db 433f 3c97 5372 4755 543f
000005f0: da62 7d2b eb7f 5e3f 22b9 5f76 b322 573f
00000600: 3b91 2707 1560 4a3f 8948 7490 b10d 353f
00000610: 0dd9 44db 7482 563f 5d1b 893d f06e 533f
00000620: b131 af0f 5d6c 683f 98e3 8b06 cf74 503f
00000630: 1571 5d76 ddf1 493f 0aa9 4d5c 6826 5d3f
00000640: 3462 eb4c ac4a 683f 8aee c34c e7c1 3c3f
00000650: 1f92 1b81 484d 693f c1c9 c3ac 7c00 603f
00000660: 2e83 616f 2c58 583f d7e2 2ef1 cacd 4b3f
00000670: 7d20 0b24 52c0 393f 661e 6bf5 e117 533f
00000680: 827c 8e90 2c3d 483f 1571 5d76 ddf1 493f
00000690: a303 d8a3 bd7e 353f a303 d8a3 bd7e 453f
000006a0: 3c97 5372 4755 443f 8aee c34c e7c1 3c3f
000006b0: 22b9 5f76 b322 573f bbee 2b3b cfec 363f
000006c0: a948 4c18 e51d 543f 1571 5d76 ddf1 493f
000006d0: aee2 4a6e a315 3d3f 1be6 e974 ee4e 4f3f
000006e0: 004b 6d74 f228 543f 5769 47d2 7e5c 463f
000006f0: 5d1b 893d f06e 533f 657a a027 a6db 533f
00000700: 6da0 acce b0a6 503f d432 ecb0 b8cc 563f
00000710: aa88 eb1a 7e3b 363f 1571 5d76 ddf1 493f
00000720: 28b3 fde8 713c 4b3f 7a26 7aef 2713 3e3f
00000730: 007b 1951 c348 593f 8aee c34c e7c1 3c3f
00000740: 43eb 6d46 c639 523f 8aee c34c e7c1 3c3f
00000750: d9b6 16be 6dad 523f 2ce8 d1ea 9301 653f
00000760: 1571 5d76 ddf1 493f ba02 e23a 0e1f 603f
00000770: 1571 5d76 ddf1 493f 7ae9 2334 510e 3b3f
00000780: 43eb 6d46 c639 523f 1571 5d76 ddf1 493f
00000790: 964c c795 6ef7 463f 37ea 7ce5 3dfc 703f
000007a0: 86e9 9990 d5cc 6d3f 1be6 e974 ee4e 4f3f
000007b0: 22b9 5f76 b322 473f 004b 6d74 f228 543f
000007c0: 43eb 6d46 c639 523f 58d1 6567 7614 523f
000007d0: 04ba 189b b11e 5b3f 2b8f 5460 2d16 583f
000007e0: 3c97 5372 4755 543f 657a a027 a6db 333f
000007f0: 98e3 8b06 cf74 403f cc2d e65f 3755 643f

diag f8 [3618]
4.450185825412255 5.694573535570891 4.382026634673881 4.523459421213858 6.386037214049723 3.84110520553161 5.981414211254481 4.318321099840202
5.290789100127245 4.382026634673881 4.0048507677392156 6.386037214049723 4.688842661712207 4.382026634673881 6.386037214049723 4.0048507677392156
6.386037214049723 5.694573535570891 4.783316371371566 6.386037214049723 2.526116918434663 5.981414211254481 4.450185825412255 5.472270673671475
3.84110520553161 6.386037214049723 3.57942560486511 2.6105390193088387 4.382026634673881 4.602667055769973 6.386037214049723 6.386037214049723
6.386037214049723 5.290789100127245 6.386037214049723 4.688842661712207 5.004784880418081 5.981414211254481 5.472270673671475 3.9194950202668473
5.694573535570891 7.078341579557671 5.981414211254481 6.386037214049723 2.441192078551695 6.386037214049723 5.981414211254481 0.7025610284293226
5.137477698569982 5.694573535570891 5.981414211254481 2.2040042643215982 3.84110520553161 6.386037214049723 4.258528771038937 3.1509605396924196
6.386037214049723 4.0048507677392156 3.5239065356545947 6.386037214049723 5.981414211254481 4.382026634673881 4.887839716616328 5.694573535570891
5.004784880418081 5.004784880418081 6.386037214049723 4.887839716616328 4.783316371371566 7.078341579557671 4.783316371371566 5.290789100127245
5.694573535570891 5.694573535570891 6.386037214049723 5.981414211254481 3.2068032436339315 5.137477698569982 4.202201958078514 4.887839716616328
4.887839716616328 6.386037214049723 7.078341579557671 3.6384081901878007 4.258528771038937 2.8999872165956067 6.386037214049723 4.523459421213858
5.981414211254481 6.386037214049723 3.7343801416329696 3.2261959063547065 5.694573535570891 6.386037214049723 1.9701671267008734 5.290789100127245
7.078341579557671 5.290789100127245 4.450185825412255 5.004784880418081 3.9612271625656104 5.004784880418081 6.386037214049723 4.318321099840202
6.386037214049723 6.386037214049723 6.386037214049723 5.694573535570891 3.329766475647774 5.694573535570891 7.078341579557671 3.5239065356545947
6.386037214049723 4.602667055769973 5.981414211254481 5.137477698569982 4.382026634673881 5.694573535570891 4.602667055769973 6.386037214049723
3.5512580762378887 2.070630911997681 1.651938213112851 5.290789100127245 6.386037214049723 4.602667055769973 1.9656982626687183 4.148965646702326
3.2869407296953583 6.386037214049723 6.386037214049723 5.694573535570891 6.386037214049723 1.8352445811677938 6.386037214049723 5.694573535570891
5.472270673671475 3.608457886803362 3.1509605396924196 5.694573535570891 5.004784880418081 5.694573535570891 1.1439008276069993 6.386037214049723
6.386037214049723 5.694573535570891 5.290789100127245 5.004784880418081 1.8465376752421097 2.2801122371419873 2.9420437684404854 6.386037214049723
3.2460044922564535 6.386037214049723 1.8895081498462514 5.694573535570891 4.318321099840202 1.202399858661477 4.450185825412255 0.7590031460464023
4.050541939563708 7.078341579557671 7.078341579557671 6.386037214049723 6.386037214049723 5.290789100127245 1.5556510584467995 5.694573535570891
0.16242962650755385 2.6508917872622613 6.386037214049723 6.386037214049723 2.080919738549147 5.004784880418081 4.688842661712207 5.981414211254481
6.386037214049723 4.450185825412255 2.5441713879563053 3.497326227087316 6.386037214049723 4.688842661712207 4.783316371371566 5.694573535570891
4.887839716616328 4.602667055769973 1.354858798865486 4.258528771038937 1.708903222870387 4.450185825412255 2.0966125496036554 2.6824376252454836
1.649067707204868 5.472270673671475 4.887839716616328 5.694573535570891 3.1509605396924196 4.688842661712207 5.694573535570891 5.694573535570891
5.004784880418081 5.004784880418081 4.382026634673881 6.386037214049723 6.386037214049723 5.694573535570891 5.694573535570891 5.694573535570891
5.981414211254481 6.386037214049723 5.694573535570891 5.290789100127245 5.981414211254481 3.8041903006249305 5.004784880418081 6.386037214049723
5.290789100127245 6.386037214049723 5.981414211254481 1.202399858661477 5.694573535570891 3.421816668864891 4.098502572370764 5.694573535570891
6.386037214049723 4.887839716616328 3.9612271625656104 4.450185825412255 6.386037214049723 6.386037214049723 6.386037214049723 6.386037214049723
2.065537183021416 5.290789100127245 1.2758373655555801 4.523459421213858 2.7041209229623204 2.6508917872622613 4.098502572370764 3.8041903006249305
4.258528771038937 5.290789100127245 5.981414211254481 5.981414211254481 6.386037214049723 6.386037214049723 6.386037214049723 5.981414211254481
6.386037214049723 6.386037214049723 5.472270673671475 6.386037214049723 5.981414211254481 6.386037214049723 6.386037214049723 1.1175294478003148
00000000: d812 5583 fdcc 1140 bac6 ef48 3ec7 1640
00000010: 4480 78fd 3187 1140 2196 1bbf 0518 1240
00000020: b187 e556 4d8b 1940 6c07 b25d 95ba 0e40
00000030: a7ab d4d8 f7ec 1740 fdc2 65f7 f545 1140
00000040: b451 2c9e c429 1540 4480 78fd 3187 1140
00000050: a233 8399 f704 1040 b187 e556 4d8b 1940
00000060: f792 80f8 5fc1 1240 4480 78fd 3187 1140
00000070: b187 e556 4d8b 1940 a233 8399 f704 1040
00000080: b187 e556 4d8b 1940 bac6 ef48 3ec7 1640
00000090: 5cd9 d5af 1d22 1340 b187 e556 4d8b 1940
000000a0: b764 74c9 7c35 0440 a7ab d4d8 f7ec 1740
000000b0: d812 5583 fdcc 1140 911d 69ec 9ae3 1540
000000c0: 6c07 b25d 95ba 0e40 b187 e556 4d8b 1940
000000d0: a5e2 3ae4 a9a2 0c40 31e8 0648 62e2 0440
000000e0: 4480 78fd 3187 1140 73a2 7b8d 2169 1240
000000f0: b187 e556 4d8b 1940 b187 e556 4d8b 1940
00000100: b187 e556 4d8b 1940 b451 2c9e c429 1540
00000110: b187 e556 4d8b 1940 f792 80f8 5fc1 1240
00000120: caa4 e353 e604 1440 a7ab d4d8 f7ec 1740
00000130: 911d 69ec 9ae3 1540 380c 8734 205b 0f40
00000140: bac6 ef48 3ec7 1640 fe77 68c6 3850 1c40
00000150: a7ab d4d8 f7ec 1740 b187 e556 4d8b 1940
00000160: 0212 65b6 8f87 0340 b187 e556 4d8b 1940
00000170: a7ab d4d8 f7ec 1740 c389 1144 617b e63f
00000180: 5126 2df4 c68c 1440 bac6 ef48 3ec7 1640
00000190: a7ab d4d8 f7ec 1740 e30b dcfc cca1 0140
000001a0: 6c07 b25d 95ba 0e40 b187 e556 4d8b 1940
000001b0: cdbf 22c4 bb08 1140 3fb9 a7cc 2a35 0940
000001c0: b187 e556 4d8b 1940 a233 8399 f704 1040
000001d0: 8c60 e6e8 f530 0c40 b187 e556 4d8b 1940
000001e0: a7ab d4d8 f7ec 1740 4480 78fd 3187 1140
000001f0: 01d4 cbda 258d 1340 bac6 ef48 3ec7 1640
00000200: caa4 e353 e604 1440 caa4 e353 e604 1440
00000210: b187 e556 4d8b 1940 01d4 cbda 258d 1340
00000220: 5cd9 d5af 1d22 1340 fe77 68c6 3850 1c40
00000230: 5cd9 d5af 1d22 1340 b451 2c9e c429 1540
00000240: bac6 ef48 3ec7 1640 bac6 ef48 3ec7 1640
00000250: b187 e556 4d8b 1940 a7ab d4d8 f7ec 1740
00000260: 68ea 8075 88a7 0940 5126 2df4 c68c 1440
00000270: 9b89 b407 0ecf 1040 01d4 cbda 258d 1340
00000280: 01d4 cbda 258d 1340 b187 e556 4d8b 1940
00000290: fe77 68c6 3850 1c40 5ad7 d2c0 751b 0d40
000002a0: cdbf 22c4 bb08 1140 04c5 707f 2c33 0740
000002b0: b187 e556 4d8b 1940 2196 1bbf 0518 1240
000002c0: a7ab d4d8 f7ec 1740 b187 e556 4d8b 1940
000002d0: e329 19b2 02e0 0d40 a642 a2cc 3fcf 0940
000002e0: bac6 ef48 3ec7 1640 b187 e556 4d8b 1940
000002f0: 465a 0df7 cd85 ff3f b451 2c9e c429 1540
00000300: fe77 68c6 3850 1c40 b451 2c9e c429 1540
00000310: d812 5583 fdcc 1140 caa4 e353 e604 1440
00000320: 29f8 d9dd 97b0 0f40 caa4 e353 e604 1440
00000330: b187 e556 4d8b 1940 fdc2 65f7 f545 1140
00000340: b187 e556 4d8b 1940 b187 e556 4d8b 1940
00000350: b187 e556 4d8b 1940 bac6 ef48 3ec7 1640
00000360: 82cb 219b 5ca3 0a40 bac6 ef48 3ec7 1640
00000370: fe77 68c6 3850 1c40 8c60 e6e8 f530 0c40
00000380: b187 e556 4d8b 1940 73a2 7b8d 2169 1240
00000390: a7ab d4d8 f7ec 1740 5126 2df4 c68c 1440
000003a0: 4480 78fd 3187 1140 bac6 ef48 3ec7 1640
000003b0: 73a2 7b8d 2169 1240 b187 e556 4d8b 1940
000003c0: e6c7 88fe f968 0c40 fdee 88f0 a690 0040
000003d0: 6751 85c3 566e fa3f b451 2c9e c429 1540
000003e0: b187 e556 4d8b 1940 73a2 7b8d 2169 1240
000003f0: 6775 7f05 8073 ff3f 8441 5373 8a98 1040
00000400: 9d74 cf94 a74b 0a40 b187 e556 4d8b 1940
00000410: b187 e556 4d8b 1940 bac6 ef48 3ec7 1640
00000420: b187 e556 4d8b 1940 266e 046c 295d fd3f
00000430: b187 e556 4d8b 1940 bac6 ef48 3ec7 1640
00000440: 911d 69ec 9ae3 1540 7a82 262b 1fde 0c40
00000450: 3fb9 a7cc 2a35 0940 bac6 ef48 3ec7 1640
00000460: caa4 e353 e604 1440 bac6 ef48 3ec7 1640
00000470: c407 47f4 6a4d f23f b187 e556 4d8b 1940
00000480: b187 e556 4d8b 1940 bac6 ef48 3ec7 1640
00000490: b451 2c9e c429 1540 caa4 e353 e604 1440
000004a0: 9bf2 df16 6b8b fd3f b5df 0d7c ab3d 0240
000004b0: e2d1 463e 4e89 0740 b187 e556 4d8b 1940
000004c0: d048 0734 d1f7 0940 b187 e556 4d8b 1940
000004d0: 85d7 d1e5 6c3b fe3f bac6 ef48 3ec7 1640
000004e0: fdc2 65f7 f545 1140 35a8 5aa2 073d f33f
000004f0: d812 5583 fdcc 1140 b792 3af7 c049 e83f
00000500: 9802 2644 c133 1040 fe77 68c6 3850 1c40
00000510: fe77 68c6 3850 1c40 b187 e556 4d8b 1940
00000520: b187 e556 4d8b 1940 b451 2c9e c429 1540
00000530: c444 405d f2e3 f83f bac6 ef48 3ec7 1640
00000540: 232f e076 7eca c43f 1236 dcc0 0635 0540
00000550: b187 e556 4d8b 1940 b187 e556 4d8b 1940
00000560: 0c5b 753f b9a5 0040 caa4 e353 e604 1440
00000570: f792 80f8 5fc1 1240 a7ab d4d8 f7ec 1740
00000580: b187 e556 4d8b 1940 d812 5583 fdcc 1140
00000590: b387 5587 765a 0440 c643 462c 86fa 0b40
000005a0: b187 e556 4d8b 1940 f792 80f8 5fc1 1240
000005b0: 5cd9 d5af 1d22 1340 bac6 ef48 3ec7 1640
000005c0: 01d4 cbda 258d 1340 73a2 7b8d 2169 1240
000005d0: a133 7d6b 80ad f53f cdbf 22c4 bb08 1140
000005e0: f31d e4e7 aa57 fb3f d812 5583 fdcc 1140
000005f0: 7072 e7cc dcc5 0040 ffe9 8fdb a175 0540
00000600: 925a f5d1 9462 fa3f 911d 69ec 9ae3 1540
00000610: 01d4 cbda 258d 1340 bac6 ef48 3ec7 1640
00000620: 3fb9 a7cc 2a35 0940 f792 80f8 5fc1 1240
00000630: bac6 ef48 3ec7 1640 bac6 ef48 3ec7 1640
00000640: caa4 e353 e604 1440 caa4 e353 e604 1440
00000650: 4480 78fd 3187 1140 b187 e556 4d8b 1940
00000660: b187 e556 4d8b 1940 bac6 ef48 3ec7 1640
00000670: bac6 ef48 3ec7 1640 bac6 ef48 3ec7 1640
00000680: a7ab d4d8 f7ec 1740 b187 e556 4d8b 1940
00000690: bac6 ef48 3ec7 1640 b451 2c9e c429 1540
000006a0: a7ab d4d8 f7ec 1740 4e8e 0753 fb6e 0e40
000006b0: caa4 e353 e604 1440 b187 e556 4d8b 1940
000006c0: b451 2c9e c429 1540 b187 e556 4d8b 1940
000006d0: a7ab d4d8 f7ec 1740 35a8 5aa2 073d f33f
000006e0: bac6 ef48 3ec7 1640 7e75 ed6a e15f 0b40
000006f0: 029e bbdb dd64 1040 bac6 ef48 3ec7 1640
00000700: b187 e556 4d8b 1940 01d4 cbda 258d 1340
00000710: 29f8 d9dd 97b0 0f40 d812 5583 fdcc 1140
00000720: b187 e556 4d8b 1940 b187 e556 4d8b 1940
00000730: b187 e556 4d8b 1940 b187 e556 4d8b 1940
00000740: d9fd cd5b 3886 0040 b451 2c9e c429 1540
00000750: 5a37 0171 d469 f43f 2196 1bbf 0518 1240
00000760: 866b 8426 0aa2 0540 1236 dcc0 0635 0540
00000770: 029e bbdb dd64 1040 4e8e 0753 fb6e 0e40
00000780: cdbf 22c4 bb08 1140 b451 2c9e c429 1540
00000790: a7ab d4d8 f7ec 1740 a7ab d4d8 f7ec 1740
000007a0: b187 e556 4d8b 1940 b187 e556 4d8b 1940
000007b0: b187 e556 4d8b 1940 a7ab d4d8 f7ec 1740
000007c0: b187 e556 4d8b 1940 b187 e556 4d8b 1940
000007d0: 911d 69ec 9ae3 1540 b187 e556 4d8b 1940
000007e0: a7ab d4d8 f7ec 1740 b187 e556 4d8b 1940
000007f0: b187 e556 4d8b 1940 9ee8 e98e 66e1 f13f

indices i4 [21683]
3615 3609 3608 3607 3606 3603 3600 3599
3595 3593 3591 3587 3586 3585 3584 3582
3581 3580 3576 3573 3572 3568 3567 3565
3562 3558 3557 3555 3554 3552 3550 3547
3544 3542 3541 3540 3539 3536 3535 3533
3532 3531 3529 3528 3527 3522 3520 3519
3518 3517 3515 3514 3512 3510 3509 3506
3498 3497 3496 3491 3487 3486 3482 3481
3480 3479 3477 3470 3458 3457 3452 3451
3449 3445 3443 3442 3438 3430 3425 3417
3415 3414 3413 3412 3411 3407 3406 3404
3402 3401 3400 3395 3394 3389 3385 3378
3370 3367 3366 3359 3357 3356 3354 3345
3340 3339 3338 3335 3331 3330 3326 3324
3323 3321 3319 3318 3317 3316 3313 3308
3307 3305 3291 3290 3287 3284 3283 3280
3279 3277 3275 3273 3272 3266 3265 3264
3262 3261 3259 3258 3257 3254 3253 3252
3251 3250 3247 3246 3243 3238 3236 3235
3234 3233 3231 3229 3228 3227 3226 3225
3224 3222 3221 3220 3219 3218 3217 3216
3215 3213 3212 3210 3207 3206 3205 3204
3202 3201 3199 3198 3197 3196 3195 3189
3186 3185 3184 3182 3181 3180 3175 3172
3169 3168 3167 3164 3163 3162 3159 3158
3152 3151 3146 3145 3144 3143 3142 3141
3140 3139 3125 3124 3122 3117 3114 3110
3108 3106 3103 3101 3097 3096 3093 3091
3089 3086 3085 3079 3076 3075 3071 3070
3064 3063 3056 3055 3054 3049 3046 3045
3043 3039 3038 3037 3031 3028 3025 3024
3023 3020 3019 3018 3017 3016 3014 3010
00000000: 1f0e 0000 190e 0000 180e 0000 170e 0000
00000010: 160e 0000 130e 0000 100e 0000 0f0e 0000
00000020: 0b0e 0000 090e 0000 070e 0000 030e 0000
00000030: 020e 0000 010e 0000 000e 0000 fe0d 0000
00000040: fd0d 0000 fc0d 0000 f80d 0000 f50d 0000
00000050: f40d 0000 f00d 0000 ef0d 0000 ed0d 0000
00000060: ea0d 0000 e60d 0000 e50d 0000 e30d 0000
00000070: e20d 0000 e00d 0000 de0d 0000 db0d 0000
00000080: d80d 0000 d60d 0000 d50d 0000 d40d 0000
00000090: d30d 0000 d00d 0000 cf0d 0000 cd0d 0000
000000a0: cc0d 0000 cb0d 0000 c90d 0000 c80d 0000
000000b0: c70d 0000 c20d 0000 c00d 0000 bf0d 0000
000000c0: be0d 0000 bd0d 0000 bb0d 0000 ba0d 0000
000000d0: b80d 0000 b60d 0000 b50d 0000 b20d 0000
000000e0: aa0d 0000 a90d 0000 a80d 0000 a30d 0000
000000f0: 9f0d 0000 9e0d 0000 9a0d 0000 990d 0000
00000100: 980d 0000 970d 0000 950d 0000 8e0d 0000
00000110: 820d 0000 810d 0000 7c0d 0000 7b0d 0000
00000120: 790d 0000 750d 0000 730d 0000 720d 0000
00000130: 6e0d 0000 660d 0000 610d 0000 590d 0000
00000140: 570d 0000 560d 0000 550d 0000 540d 0000
00000150: 530d 0000 4f0d 0000 4e0d 0000 4c0d 0000
00000160: 4a0d 0000 490d 0000 480d 0000 430d 0000
00000170: 420d 0000 3d0d 0000 390d 0000 320d 0000
00000180: 2a0d 0000 270d 0000 260d 0000 1f0d 0000
00000190: 1d0d 0000 1c0d 0000 1a0d 0000 110d 0000
000001a0: 0c0d 0000 0b0d 0000 0a0d 0000 070d 0000
000001b0: 030d 0000 020d 0000 fe0c 0000 fc0c 0000
000001c0: fb0c 0000 f90c 0000 f70c 0000 f60c 0000
000001d0: f50c 0000 f40c 0000 f10c 0000 ec0c 0000
000001e0: eb0c 0000 e90c 0000 db0c 0000 da0c 0000
000001f0: d70c 0000 d40c 0000 d30c 0000 d00c 0000
00000200: cf0c 0000 cd0c 0000 cb0c 0000 c90c 0000
00000210: c80c 0000 c20c 0000 c10c 0000 c00c 0000
00000220: be0c 0000 bd0c 0000 bb0c 0000 ba0c 0000
00000230: b90c 0000 b60c 0000 b50c 0000 b40c 0000
00000240: b30c 0000 b20c 0000 af0c 0000 ae0c 0000
00000250: ab0c 0000 a60c 0000 a40c 0000 a30c 0000
00000260: a20c 0000 a10c 0000 9f0c 0000 9d0c 0000
00000270: 9c0c 0000 9b0c 0000 9a0c 0000 990c 0000
00000280: 980c 0000 960c 0000 950c 0000 940c 0000
00000290: 930c 0000 920c 0000 910c 0000 900c 0000
000002a0: 8f0c 0000 8d0c 0000 8c0c 0000 8a0c 0000
000002b0: 870c 0000 860c 0000 850c 0000 840c 0000
000002c0: 820c 0000 810c 0000 7f0c 0000 7e0c 0000
000002d0: 7d0c 0000 7c0c 0000 7b0c 0000 750c 0000
000002e0: 720c 0000 710c 0000 700c 0000 6e0c 0000
000002f0: 6d0c 0000 6c0c 0000 670c 0000 640c 0000
00000300: 610c 0000 600c 0000 5f0c 0000 5c0c 0000
00000310: 5b0c 0000 5a0c 0000 570c 0000 560c 0000
00000320: 500c 0000 4f0c 0000 4a0c 0000 490c 0000
00000330: 480c 0000 470c 0000 460c 0000 450c 0000
00000340: 440c 0000 430c 0000 350c 0000 340c 0000
00000350: 320c 0000 2d0c 0000 2a0c 0000 260c 0000
00000360: 240c 0000 220c 0000 1f0c 0000 1d0c 0000
00000370: 190c 0000 180c 0000 150c 0000 130c 0000
00000380: 110c 0000 0e0c 0000 0d0c 0000 070c 0000
00000390: 040c 0000 030c 0000 ff0b 0000 fe0b 0000
000003a0: f80b 0000 f70b 0000 f00b 0000 ef0b 0000
000003b0: ee0b 0000 e90b 0000 e60b 0000 e50b 0000
000003c0: e30b 0000 df0b 0000 de0b 0000 dd0b 0000
000003d0: d70b 0000 d40b 0000 d10b 0000 d00b 0000
000003e0: cf0b 0000 cc0b 0000 cb0b 0000 ca0b 0000
000003f0: c90b 0000 c80b 0000 c60b 0000 c20b 0000

indptr i4 [148]
0 1310 1333 1579 1593 1635 1680 1976
2018 2030 2309 2519 2526 2713 3276 3542
3794 3975 4242 4318 4342 4443 4772 5039
5226 5495 5864 5977 6220 6428 6654 6798
7010 7539 7648 7696 7797 7934 8237 8256
8331 8380 8710 8863 8962 9211 9336 9452
9564 9691 9830 10000 10105 10428 10556 10570
10709 10718 10845 11022 11083 11337 11525 12037
12194 12418 12615 12727 12840 12972 13083 13259
13381 13561 13797 13912 14066 14199 14294 14550
14653 14854 14876 14986 15203 15273 15390 15611
15712 15821 15908 16090 16309 16330 16397 16455
16466 16556 16761 16812 16874 16983 17010 17074
17303 17407 17453 17465 17608 17714 17834 17899
17949 18018 18083 18259 18384 18538 18671 18857
19009 19122 19131 19359 19535 19608 19652 19765
19933 19997 20115 20120 20322 20353 20574 20649
20719 20823 20860 21068 21133 21203 21254 21337
21391 21528 21641 21683
00000000: 0000 0000 1e05 0000 3505 0000 2b06 0000
00000010: 3906 0000 6306 0000 9006 0000 b807 0000
00000020: e207 0000 ee07 0000 0509 0000 d709 0000
00000030: de09 0000 990a 0000 cc0c 0000 d60d 0000
00000040: d20e 0000 870f 0000 9210 0000 de10 0000
00000050: f610 0000 5b11 0000 a412 0000 af13 0000
00000060: 6a14 0000 7715 0000 e816 0000 5917 0000
00000070: 4c18 0000 1c19 0000 fe19 0000 8e1a 0000
00000080: 621b 0000 731d 0000 e01d 0000 101e 0000
00000090: 751e 0000 fe1e 0000 2d20 0000 4020 0000
000000a0: 8b20 0000 bc20 0000 0622 0000 9f22 0000
000000b0: 0223 0000 fb23 0000 7824 0000 ec24 0000
000000c0: 5c25 0000 db25 0000 6626 0000 1027 0000
000000d0: 7927 0000 bc28 0000 3c29 0000 4a29 0000
000000e0: d529 0000 de29 0000 5d2a 0000 0e2b 0000
000000f0: 4b2b 0000 492c 0000 052d 0000 052f 0000
00000100: a22f 0000 8230 0000 4731 0000 b731 0000
00000110: 2832 0000 ac32 0000 1b33 0000 cb33 0000
00000120: 4534 0000 f934 0000 e535 0000 5836 0000
00000130: f236 0000 7737 0000 d637 0000 d638 0000
00000140: 3d39 0000 063a 0000 1c3a 0000 8a3a 0000
00000150: 633b 0000 a93b 0000 1e3c 0000 fb3c 0000
00000160: 603d 0000 cd3d 0000 243e 0000 da3e 0000
00000170: b53f 0000 ca3f 0000 0d40 0000 4740 0000
00000180: 5240 0000 ac40 0000 7941 0000 ac41 0000
00000190: ea41 0000 5742 0000 7242 0000 b242 0000
000001a0: 9743 0000 ff43 0000 2d44 0000 3944 0000
000001b0: c844 0000 3245 0000 aa45 0000 eb45 0000
000001c0: 1d46 0000 6246 0000 a346 0000 5347 0000
000001d0: d047 0000 6a48 0000 ef48 0000 a949 0000
000001e0: 414a 0000 b24a 0000 bb4a 0000 9f4b 0000
000001f0: 4f4c 0000 984c 0000 c44c 0000 354d 0000
00000200: dd4d 0000 1d4e 0000 934e 0000 984e 0000
00000210: 624f 0000 814f 0000 5e50 0000 a950 0000
00000220: ef50 0000 5751 0000 7c51 0000 4c52 0000
00000230: 8d52 0000 d352 0000 0653 0000 5953 0000
00000240: 8f53 0000 1854 0000 8954 0000 b354 0000
