saved_models/user_BERT_model/topic_embeddings.safetensors (safetensors, 225880 bytes, 1 tensors)

topic_embeddings f4 [147, 384]
0.027553737 -0.00010430801 0.0045352885 0.030034376 0.018144483 -0.006952532 -0.0027626639 0.0017997969
0.042137865 -0.037849642 -0.0061520897 -0.0057695922 -0.012471817 0.024148256 0.032670368 0.0018830411
0.00014500346 -0.0030461352 -0.030331109 0.010600239 -0.0048885904 0.013047204 -0.0104212435 -0.009668465
1.9920482e-05 0.025686009 -0.021980481 -0.025467757 -0.02191225 0.004041271 0.026046813 -0.02338373
-0.004699005 0.00019243562 0.0026040426 0.0063277255 -0.053417612 0.020109259 0.016631762 -0.01627239
0.02197017 0.043044463 0.03260481 0.0057167266 -0.011780229 -0.02021696 0.010909979 -0.0078181
0.02391267 -0.043948516 -0.00354866 0.03036443 -0.00043028285 0.016463472 0.023350295 0.02730102
0.03447804 0.032357067 -0.0076770093 0.030419137 -0.011300025 0.0317521 -0.0034528584 0.0046336576
-0.0014890578 0.061805163 -0.0007101602 0.012976497 0.026412543 0.04216765 -0.038387623 0.0022060666
-0.016650071 0.0068023605 -0.009003642 0.02008146 -0.006490649 -0.008614868 0.03728488 0.02665217
-0.0035260983 0.0402426 -0.03857456 -0.0032342966 -0.02166824 -0.027371414 0.021413138 -0.0096580265
0.023806073 0.017743716 -0.023353513 -0.006553243 0.012954274 -0.002241186 -0.00934117 -0.0031638388
-0.038554918 0.009732131 -0.04449787 0.022063514 -0.014847715 -0.0035443276 -0.0026147056 0.0070859026
0.009979866 0.02002193 -0.0066070105 0.005003277 -0.020156493 0.0028180357 -0.007992635 -0.022028146
-0.0043906476 -0.015704013 -0.013008975 -0.013215423 0.018043043 0.0011165814 0.040109515 0.030810935
-0.019275239 -0.013713 0.017341802 0.029843517 -0.021018595 0.0029309262 -0.0013339001 -8.179368e-34
0.023287505 -0.008938612 -0.0031098663 0.005996925 -0.008292037 0.024043811 0.010235496 -0.0043417723
-0.0017503608 0.014877343 0.00062903535 0.014927391 -0.005067906 -0.03404794 -0.015192775 -0.0023476076
-0.016105503 -0.0076537165 0.0342142 0.021570789 -0.03217507 -0.00822208 -0.015158293 -0.0102967145
-0.011804564 -0.037085865 -0.00654181 0.0015110049 -0.023022119 -0.007775074 -0.024642657 0.042278953
0.034232747 -0.0065208357 -0.0019648152 -0.010001737 0.01483643 0.023543252 -0.015367094 -0.024168307
-0.033329837 0.0014973572 -0.035899036 0.016474428 0.013492358 0.0106562255 0.016153384 -0.041695964
-0.06578258 -0.012319906 -0.014141224 0.016750244 0.0045871288 -0.016049836 -0.053389154 -0.020111771
-0.0026563094 -0.014906176 0.020563032 0.009214327 0.028085282 -0.02279958 -0.018662497 -0.023624638
0.017718444 -0.011665336 0.020279458 -0.019233242 0.0043470156 -0.013919641 -0.01352882 0.021268474
-0.015059794 -0.013004465 0.0067604613 -0.033563584 -0.01752633 -0.026733853 -0.031514626 -0.042148877
0.0020101015 0.004060207 -0.02400589 0.019771991 -0.004194836 -0.02417311 -0.024238199 0.0045317104
-0.015512909 0.042720806 -0.00399813 0.014542976 0.018099844 -0.01026322 -0.0113680465 -1.8295781e-34
0.03672917 0.0060015866 0.04075556 -0.040005364 0.00080069463 -0.04217129 -0.027875813 0.0017792783
0.0037811918 0.02696572 0.01435007 -0.0056074588 0.0628641 0.027878603 -0.013802145 -0.006970256
0.006423345 -0.008067993 -0.017385047 -0.055500407 -0.022893876 0.038023006 -0.004423496 -0.0009515314
0.003882981 -0.008083148 0.029413318 -0.009728995 -0.0005404083 -0.008306598 -0.0007887841 0.013217589
00000000: 60b8 e13c f0bf dab8 c29c 943b a70a f63c
00000010: bda3 943c 11d2 e3bb cf0d 35bb 2ae7 eb3a
00000020: c198 2c3d 3a08 1bbd 7897 c9bb d90e bdbb
00000030: 9856 4cbc 90d2 c53c 5dd1 053d 60d0 f63a
00000040: 120c 1839 aba1 47bb f278 f8bc a0ac 2d3c
00000050: 7830 a0bb f1c3 553c ddbd 2abc 7b68 1ebc
00000060: e91a a737 776b d23c 6910 b4bc c2a1 d0bc
00000070: 5281 b3bc a36c 843b 2060 d53c 3c8f bfbc
00000080: 1cfa 99bb 8bc8 4939 96a8 2a3b cf58 cf3b
00000090: 6dcc 5abd 2cbc a43c 553f 883c ad4d 85bc
000000a0: c9fa b33c 644f 303d 9f8c 053d 6153 bb3b
000000b0: dd01 41bc 0a9e a5bc c5bf 323c 7d17 00bc
000000c0: 81e4 c33c 5c03 34bd a390 68bb d3be f83c
000000d0: 9697 e1b9 67de 863c 1e49 bf3c 64a6 df3c
000000e0: d838 0d3d d888 043d 6c8f fbbb 8e31 f93c
000000f0: bd23 39bc 7d0e 023d 5a49 62bb f0d5 973b
00000100: 7d2c c3ba 6927 7d3d 0b2a 3aba 609b 543c
00000110: 1e5f d83c fcb7 2c3d 573c 1dbd a893 103b
00000120: bb65 88bc 56e6 de3b 0384 13bc e081 a43c
00000130: 83af d4bb 6025 0dbc 08b8 183d a755 da3c
00000140: 1d16 67bb 6dd5 243d 5c00 1ebd 7ef6 53bb
00000150: 9881 b1bc 043a e0bc 9b6a af3c b33c 1ebc
00000160: f404 c33c 455b 913c de4f bfbc 96bc d6bb
00000170: 2a3e 543c dde0 12bb b50b 19bc 6858 4fbb
00000180: c3eb 1dbd 8473 1f3c 6643 36bd 8bbe b43c
00000190: d543 73bc f347 68bb 7b5b 2bbb dc30 e83b
000001a0: 9882 233c 0805 a43c 9f7f d8bb 88f2 a33b
000001b0: 3b1f a5bc cbae 383b 8af3 02bc 5f74 b4bc
000001c0: 6cdf 8fbb b4a5 80bc 9923 55bc 8085 58bc
000001d0: 01cf 933c 415a 923a e049 243d 3767 fc3c
000001e0: 1be7 9dbc 7eac 60bc 6510 8e3c 647a f43c
000001f0: 302f acbc c814 403b 43d6 aeba 2fe7 8788
00000200: 70c5 be3c 4273 12bc e6ce 4bbb da81 c43b
00000210: 53db 07bc 87f7 c43c c8b2 273c 6d45 8ebb
00000220: 5d6c e5ba 19c0 733c d9e5 243a 0492 743c
00000230: ad10 a6bb da75 0bbd 1eeb 78bc 52da 19bb
00000240: b0ef 83bc 07cc fabb 3024 0c3d 39b5 b03c
00000250: 02ca 03bd e7b5 06bc 7d5a 78bc 8db3 28bc
00000260: ee67 41bc 59e7 17bd ae5c d6bb e90c c63a
00000270: e298 bcbc 0cc6 febb 66df c9bc b22c 2d3d
00000280: a337 0c3d bcac d5bb 21c4 00bb 53de 23bc
00000290: 7f14 733c c7dd c03c 44c6 7bbc 9dfc c5bc
000002a0: de84 08bd f842 c43a de0a 13bd 61f5 863c
000002b0: 0d0f 5d3c 7397 2e3c 1a54 843c 63c9 2abd
000002c0: 04b9 86bd 6ed9 49bc 98b0 67bc cf37 893c
000002d0: a04f 963b f27a 83bc 96ae 5abd 71c1 a4bc
000002e0: 7a15 2ebb 0939 74bc ce73 a83c b0f7 163c
000002f0: 1b13 e63c 2fc6 babc 18e2 98bc 7588 c1bc
00000300: 4526 913c f71f 3fbc 1b21 a63c 088f 9dbc
00000310: 6971 8e3b 350f 64bc fca7 5dbc 393b ae3c
00000320: 5bbd 76bc ae10 55bc dc86 dd3b f879 09bd
00000330: 6193 8fbc f400 dbbc 7b15 01bd 4da4 2cbd
00000340: e8bb 033b 7c0b 853b 00a8 c4bc dff8 a13c
00000350: d674 89bb b006 c6bc 308f c6bc be7e 943b
00000360: db29 7ebc 03fc 2e3d bf02 83bb aa45 6e3c
00000370: 2046 943c 1127 28bc 0b41 3abc 5131 7387
00000380: 5371 163d f5a8 c43b 4def 263d aadc 23bd
00000390: b5e5 513a cdbb 2cbd d15b e4bc ac36 e93a
000003a0: dfcd 773b 37e7 dc3c 8e1c 6b3c c6be b7bb
000003b0: e5be 803d ab61 e43c 6422 62bc bf66 e4bb
000003c0: ec7a d23b 9e2f 04bc 166b 8ebc 6554 63bd
000003d0: f08b bbbc 03be 1b3d f9f2 90bb 3170 79ba
000003e0: 9c79 7e3b 2e6f 04bc 33f4 f03c 5d66 1fbc
000003f0: 30aa 0dba 6618 08bc 68c6 4eba 968e 583c
